…
e=1 (as a proper command-line flag, not via TF_XLA_FLAGS) or set the envvar XLA_FLAGS=--xla_hlo_profile.
tracking <tf.Variable 'Variable:0' shape=() dtype=int32> tp
tracking <tf.Variable 'Variable_1:0' shape=() dtype=int32> fp
tracking <tf.Variable 'Variable_2:0' shape=() dtype=int32> tp
tracking <tf.Variable 'Variable_3:0' shape=() dtype=int32> fn
Model: "sequential_1"
_________________________________________________________________
Layer (type)                 Output Shape              Param #   
=================================================================
embedding_1 (Embedding)      (None, 100, 100)          901000    
_________________________________________________________________
lstm_1 (LSTM)                (None, 128)               117248    
_________________________________________________________________
dense_1 (Dense)              (None, 10)                1290      
_________________________________________________________________
dense_2 (Dense)              (None, 8)                 88        
_________________________________________________________________
dense_3 (Dense)              (None, 4)                 36        
_________________________________________________________________
dropout_1 (Dropout)          (None, 4)                 0         
_________________________________________________________________
dense_4 (Dense)              (None, 2)                 10        
=================================================================
Total params: 1,019,672
Trainable params: 118,672
Non-trainable params: 901,000
_________________________________________________________________
X_train.shape: (4180, 100)
X_test.shape: (1394, 100)
y_train.shape: (4180, 2)
y_test.shape: (1394, 2)
WARNING:tensorflow:From /home/blackfalcon/.local/lib/python3.7/site-packages/tensorflow/python/ops/math_grad.py:1250: add_dispatch_support.<locals>.wrapper (from tensorflow.python.ops.array_ops) is deprecated and will be removed in a future version.
…
